data.pth (torch, 5887 bytes, 6 tensors)

l1.weight f4 [8, 72]
00000000: 791d 13be d902 e03e 8ef1 eabd 17bc 033f
00000010: dec0 193f 0f54 7fbf 4d34 35be 1c8f 80be
00000020: f7b5 f33e 63b0 f83e ea1e 3dbf 9867 ff3e
00000030: 4610 d03e a6ac 6ebf bea2 1c3f c1a6 f33e
00000040: bf34 d8be 3b04 0f3f 482a e0bd 2dd8 f73e
00000050: 7b32 91bd c918 d03e 162b 283f 2cf1 093f
00000060: 2559 febd 8800 2ebf 6add 213f 473a 8fbe
00000070: 3b6e c4be c1c7 a33e 653e 2abe cc31 b5be
00000080: d704 c4be fbbe 0c3f d0e7 983e cd72 bdbd
00000090: 8fa7 6ebd e67e 213f 9c67 3cbf 108b d7bd
000000a0: cc47 803e 13ab 123f e504 ce3e 71b8 5bbe
000000b0: 441f 053f 6236 693e 9877 50be 70e7 e43e
000000c0: b918 fd3e 98b3 763c 165c 103f dd7e f93e
000000d0: cdd0 bf3e 6c35 213f 4ceb 45be 7897 6ebd
000000e0: 1513 bd3d 6119 c2be 019c 88bc 75ea df3e
000000f0: 4af2 b73e 876f 80be a1e5 163f 979d 853e
00000100: 1f89 bb3e 8525 0fbe 61a0 0cbc 90f2 a9bd
00000110: 18e6 22bd e905 ccbe e959 053f 76fc 233d
00000120: e291 de3e 3af6 953c aacd 033f 961d 2d3f
00000130: 8b83 e83e 808f f53e 2d63 b93e cc4c 0f3f
00000140: 590a e0be dbcc dfbe 75c9 21bf b37c 203f
00000150: 57fa d3be f289 aebd da82 dc3e 2a24 2c3f
00000160: 42cc 9a3e 4d7a 1b3f b622 ce3e 62a0 d53e
00000170: 3567 103f fd27 e9be 34cf 1a3f be98 c33e
00000180: 15e2 493f b415 27bf 7dcc 243f dd64 97be
00000190: f8ae 973e 92cf 4dbe 3c78 b03e dce7 c63e
000001a0: 0397 c7be 58ab 2e3f ea2e fe3d 1d0c 503e
000001b0: 918f 8f3e 15b9 c43e 579a a03e 987b 5c3e
000001c0: c53d 593f 4a84 263f 144f 363f 24e2 dabe
000001d0: 7ade d73e 3078 93be 4bf6 613f c457 eabe
000001e0: 032f e5be f62f fb3d b7a2 333f e482 d9be
000001f0: 8814 f0be c064 e93e d84f b9be 8f9b b53e
00000200: a3e9 1f3f db34 1abe 0680 c93e 58c9 d6be
00000210: a0b3 f1be c68c 6e3f fd30 cf3e 3760 63bf
00000220: f6a0 55be dfbb 5d3e 81f4 9a3e 3c1e a43e
00000230: c409 b83e f38a a5bd 7c8a da3e 26f7 c53e
00000240: 2912 2bbe 784c a7be 591f 83be 6dac 06bf
00000250: 398c 4d3f d02c 2fbf ef44 283c 07ea 5dbe
00000260: 5eb9 dd3e 0ef0 d93e 765a 2f3f 06c4 e6be
00000270: f84a 363f 71d0 2dbf 5a04 3f3f 65fb fabe
00000280: da0f 60be 91e8 f1be 2c6f f6bd 0eff 4a3f
00000290: a5da 9dbe bfd8 113f ddc4 0cbf 86f1 313f
000002a0: 670a 11bd 45ee 293f 67a5 1bbf 281b 10be
000002b0: 5a7f 1abe 6420 d3be 2344 29be fd9a 2ebe
000002c0: 7cfb ffbd cb94 04bf 9619 243e 2c1b a9bd
000002d0: fdb8 b6bc f2d9 333f a525 06bf 769d 163c
000002e0: 798e 7dbe 0797 f9be ad93 acbd 85a2 283f
000002f0: a503 3e3f 5705 a13b 874d 53be 3b64 ef3e
00000300: 9f68 d43e 3261 d43c af9f 1abf 896c e23e
00000310: 38fd 283f 340a 613f eb57 2b3f 0042 86bd
00000320: 6a76 40be a994 22be 76ec b0bd 10af 0b3f
00000330: 194f 183f 7da5 84be f2a9 4c3f 8c10 71bf
00000340: 3daa 63be 5232 e1bc fc54 563e 88d0 dcbc
00000350: 4811 39bd c8d4 b9be d011 453f b319 62be
00000360: e47b b43e 17e3 403e 0a34 1fbe 4416 fbbe
00000370: ee6e dcbe 8489 783f 9afe b13e cfcb 0a3f
00000380: 9ef0 1a3f 8ec5 193f b940 603f 8111 fbbe
00000390: b044 303f 3eb3 45bd bc38 dbbe f071 f7be
000003a0: ce94 9fbe 701a fbbe f22c 4e3e 0931 e0be
000003b0: e5b1 33be 589b 1a3f 3417 fbbe e654 e2be
000003c0: 2f29 fbbe b79a 663f 5d4e f4be a2d9 953b
000003d0: e991 d13e 3dc1 92bc 8451 ba3e 9599 f33e
000003e0: 82c7 30be 7fef f9be bec8 4f3d d55f 643e
000003f0: 6b21 8e3e 3a1b e7be 8d8c 1e3f d7ea b93e
-0.14366712 0.43752173 -0.11471854 0.5145888 0.60059917 -0.9973764 -0.17695732 -0.25109184
0.47599766 0.48572072 -0.73875296 0.49883723 0.40637416 -0.9323219 0.61185825 0.4758816
-0.42227742 0.5586583 -0.109455645 0.48407117 -0.070897065 0.4064391 0.65690744 0.53883624
-0.12419347 -0.6796956 0.63228476 -0.2797415 -0.3836535 0.31988338 -0.16625364 -0.35389555
-0.38284943 0.54978913 0.2986436 -0.09250412 -0.058265265 0.63084257 -0.73595595 -0.10524571
0.25054777 0.5729229 0.4023811 -0.21457078 0.5200083 0.22774652 -0.20358121 0.44707823
0.49432924 0.015057467 0.5639051 0.48729602 0.3746399 0.6297214 -0.1932804 -0.05824992
0.09232155 -0.37909988 -0.016675951 0.43733564 0.3592704 -0.2508509 0.58944136 0.26096794
0.36628053 -0.13979156 -0.008583159 -0.08298218 -0.039770216 -0.3984826 0.52090317 0.040035687
0.43470675 0.018305887 0.51485693 0.6762327 0.4541286 0.47961044 0.36208478 0.5597656
-0.43757895 -0.4371098 -0.63198024 0.62690276 -0.41401932 -0.08522405 0.43068582 0.6724268
0.3023396 0.6073349 0.40260857 0.41723925 0.5640748 -0.4553832 0.60472417 0.3820247
0.788606 -0.6526749 0.64374524 -0.2956914 0.29625678 -0.20098713 0.34466732 0.3884877
-0.389824 0.682302 0.12411292 0.20317121 0.2803922 0.38422456 0.31367752 0.21531522
0.8485988 0.6504561 0.71214414 -0.42750657 0.42161924 -0.28802633 0.8826644 -0.45770085
-0.4476243 0.12265007 0.7017016 -0.42482674 -0.46890664 0.4558468 -0.36193728 0.35470244
0.62465876 -0.15059225 0.39355487 -0.41950488 -0.47207355 0.93183553 0.40467063 -0.8881869
-0.20862183 0.21653698 0.30264667 0.32054317 0.3594495 -0.08083143 0.4268378 0.38665122
-0.16706146 -0.3267553 -0.25609854 -0.5260685 0.8029209 -0.68427753 0.010270341 -0.21671306
0.43305486 0.4256596 0.6849741 -0.4507143 0.71208143 -0.6789618 0.74616015 -0.49019924
-0.21881047 -0.47247747 -0.12032923 0.7929543 -0.30830875 0.56971353 -0.5498789 0.6950916
-0.03541031 0.66379195 -0.6079926 -0.1407286 -0.15087643 -0.4123565 -0.16529898 -0.17051311
-0.12499139 -0.5178954 0.16025385 -0.08257136 -0.022305006 0.70254433 -0.5240119 0.009192815
-0.2476138 -0.48748037 -0.084266044 0.65872985 0.7422431 0.0049139666 -0.20635043 0.46756157
0.4148607 0.025925253 -0.6039991 0.4422343 0.6601138 0.87906194 0.6693103 -0.06555557
-0.18795171 -0.15877022 -0.08638851 0.54564 0.59495693 -0.25907508 0.79946816 -0.94165874
-0.2223291 -0.027489815 0.20930856 -0.026954904 -0.045182496 -0.36295152 0.76980305 -0.22080116
0.3525077 0.18836628 -0.15547195 -0.49040425 -0.43053383 0.9708483 0.34764558 0.5421724
0.605234 0.6006707 0.8759876 -0.49036792 0.6885481 -0.04826664 -0.42816722 -0.48329115
-0.31168216 -0.49043608 0.20134333 -0.4378741 -0.1754833 0.60393286 -0.4904114 -0.44205397
-0.49054858 0.90079826 -0.47716036 0.004573063 0.40931633 -0.017914409 0.36390316 0.4757811
-0.17263606 -0.48815534 0.050728552 0.22302182 0.2775987 -0.4513796 0.61933213 0.3631198

l1.bias f4 [8]
00000000: 3d60 943f 914d 6f3f fa22 763f fe1f fb3e
00000010: b98e 293f 8843 423f 8718 ebbd a6c1 b53e
1.159187 0.9347773 0.9614712 0.49047846 0.662334 0.75884295 -0.114792876 0.35499305

l2.weight f4 [8, 8]
00000000: 31c8 d7bd f5fb 703f e0ea 93bf 5107 803f
00000010: c189 4d3f ad19 ff3f d0f4 fd3d c211 993f
00000020: 47df cd3e eb83 0340 3805 653f 8eff ddbf
00000030: a20f 5fbf 5dae d2be 7e21 303e 2878 5d3f
00000040: 2f12 893f 0efb eb3f c840 9e3f 0735 b0bf
00000050: c75a 81be 5fe0 6dbf 0acd d8bd a2b6 42bf
00000060: 57cb 63bf 6168 b63f 0998 f6bf e13d 043f
00000070: 4894 5e3f db0f a2bf 205c a13d 4d8b 973f
00000080: 7065 e9bd 10c4 a4bc a21e 423e d0fa 53bd
00000090: 349e bfbd 2a99 48be ee42 5e3e 5630 86be
000000a0: bd91 b6bf d7b8 7d3f df8a 37bf e8b7 5c3f
000000b0: 622f 813f ec5c a53e 554e 7a3e f189 ba3f
000000c0: 62f5 023f 8aee cebe 959c 0540 1703 0840
000000d0: aa6e fd3f 8e1f afbf 7ff2 1ebe d4ff c0bd
000000e0: 4e22 ea3f 0a37 b93f 501f dbbd 08de 3abf
000000f0: af0c 08be ed6a fe3f 5fb5 a43e e6d8 78bf
-0.1053623 0.94134456 -1.1556053 1.0002233 0.8028832 1.9929711 0.1240021 1.1958544
0.4020941 2.0549266 0.8946109 -1.7343614 -0.8713323 -0.41148654 0.17200276 0.8651147
1.0708674 1.8435991 1.236352 -1.3766183 -0.2526457 -0.9292049 -0.10585983 -0.76059926
-0.88982147 1.4250604 -1.9265147 0.5165692 0.8694501 -1.2661089 0.078788996 1.1839386
-0.11396301 -0.020113021 0.18956998 -0.051752865 -0.09356347 -0.19589677 0.21705219 -0.26208752
-1.4263226 0.9911017 -0.71696275 0.8621812 1.0092585 0.32297456 0.24443944 1.4573346
0.51155674 -0.40416366 2.087682 2.1251886 1.9799397 -1.3681505 -0.15522192 -0.09423795
1.8291719 1.4469922 -0.10699332 -0.7299504 -0.13286088 1.9876381 0.32169625 -0.9720596

l2.bias f4 [8]
00000000: cc1a f83e 7d6a 6f3e fde8 e33e e7f2 7fbd
00000010: 169e e6bd f948 013f 9b63 173f 542d 483f
0.48457944 0.23380466 0.44513693 -0.06248751 -0.11260621 0.5050197 0.5913636 0.78194165

l3.weight f4 [9, 8]
00000000: d21a 273e 0950 c8bf 02a2 2dbf d727 823f
00000010: 6083 01bc eb12 a03e 6b89 0e3e 5050 ccbf
00000020: 9050 5abe bf84 133e 58c1 523e f012 193f
00000030: c282 103e 946a 0c3e d759 babf 7dd2 b5be
00000040: c545 24bd 99f6 31c0 d7d4 a0bf b8b7 17bf
00000050: c998 b13e dd51 013e 1d72 933f be3d ffbf
00000060: fedf ca3d ac7c 6bbe 420f 95bf 43a4 35bf
00000070: c020 063d 263d 3d3f 8b2f 7ebd 105d fd3c
00000080: d891 24bf 02ac 3b3f f412 543f c32a 36bf
00000090: b2e0 353e d3e3 93bf cd9b d7bf 67f2 d83e
000000a0: 1ffb ad3e 9ec8 113e 37dc 99bf 5fda 173f
000000b0: d4ad d33d f938 0b3f ff04 bebf 598d 07c0
000000c0: af2a 29c0 2055 9b3f 26f0 5f3f acb2 8ebe
000000d0: 20c6 fbbc 3dba 29bf 6d94 e73d 5a0b 663c
000000e0: 37af 943e d7ff 08c0 a112 6abf 96f4 f2be
000000f0: f74e a43e aac6 82bf 9f8f cebf 964a 503f
00000100: ae77 c4bf fca8 c3bf 6448 c03e d335 05bf
00000110: 717f 57be 600a a5bf 7246 a73f 10af 45be
0.16318825 -1.5649425 -0.6782533 1.0168408 -0.007904857 0.31264433 0.13919608 -1.596201
-0.21319795 0.14406107 0.20581567 0.5979452 0.1411238 0.13712531 -1.4558667 -0.35512152
-0.0401056 -2.7806761 -1.2564954 -0.5926471 0.34686878 0.12628885 1.15192 -1.9940717
0.09906004 -0.22996777 -1.1645281 -0.7095377 0.032746077 0.7392143 -0.06205706 0.030928165
-0.6428504 0.7330934 0.8284142 -0.71159 0.17761496 -1.1553901 -1.6844422 0.42372438
0.33980653 0.14236686 -1.2020329 0.5931758 0.103358895 0.5438381 -1.4845275 -2.1180022
-2.6432302 1.2135353 0.8747581 -0.2787069 -0.030734122 -0.662998 0.11307607 0.014040792
0.29039928 -2.1406152 -0.91434675 -0.4745223 0.32091495 -1.0216877 -1.613758 0.8136381
-1.5349023 -1.5285945 0.3755523 -0.52035254 -0.21044709 -1.2893791 1.3068373 -0.19305062

l3.bias f4 [9]
00000000: 696d 54be 814e 43bf ae23 ef3d 415c 473b
00000010: b1a2 963e b06f e93e 6732 643e 7869 093f
00000020: 9dae 423e
-0.20744862 -0.7629166 0.11676727 0.0030419978 0.29421 0.45593023 0.22284852 0.5367656
0.19011922
